…
share/jupyter/runtime/kernel-4d1956bc-b5e4-4de8-bdab-92fc703d3ec4.json

<__main__.parser object at 0x7f3ca1876dd8>

Config hash: f43c4de6f2

/usr/local/lib/python3.6/site-packages/ipykernel_launcher.py -f /root/.local/share/jupyter/runtime/kernel-4d1956bc-b5e4-4de8-bdab-92fc703d3ec4.json

<__main__.parser object at 0x7f3ca1876d68>

Config hash: deff061ad9

Device: cuda

Device: cuda

Environments loaded

Environments loaded

Training status loaded

Training status loaded

Observations preprocessor loaded
Observations preprocessor loaded
Model loaded

ACModel(
  (image_conv): Sequential(
    (0): Conv2d(3, 16, kernel_size=(2, 2), stride=(1, 1))
    (1): ReLU()
    (2): AvgPool2d(kernel_size=(2, 2), stride=2, padding=0)
    (3): Conv2d(16, 32, kernel_size=(2, 2), stride=(1, 1))
    (4): ReLU()
    (5): Conv2d(32, 16, kernel_size=(2, 2), stride=(1, 1))
    (6): ReLU()
  )
  (actor): Sequential(
    (0): Linear(in_features=16, out_features=64, bias=True)
    (1): Tanh()
    (2): Linear(in_features=64, out_features=7, bias=True)
  )
  (critic): Sequential(
    (0): Linear(in_features=16, out_features=64, bias=True)
    (1): Tanh()
    (2): Linear(in_features=64, out_features=1, bias=True)
  )
)

Model loaded

ACModel(
  (image_conv): Sequential(
    (0): Conv2d(3, 16, kernel_size=(2, 2), stride=(1, 1))
    (1): ReLU()
    (2): AvgPool2d(kernel_size=(2, 2), stride=2, padding=0)
    (3): Conv2d(16, 32, kernel_size=(2, 2), stride=(1, 1))
    (4): ReLU()
    (5): Conv2d(32, 16, kernel_size=(2, 2), stride=(1, 1))
    (6): ReLU()
  )
  (actor): Sequential(
    (0): Linear(in_features=16, out_features=64, bias=True)
    (1): Tanh()
    (2): Linear(in_features=64, out_features=7, bias=True)
  )
  (critic): Sequential(
    (0): Linear(in_features=16, out_features=64, bias=True)
    (1): Tanh()
    (2): Linear(in_features=64, out_features=1, bias=True)
  )
)

Optimizer loaded

Optimizer loaded

/usr/local/lib/python3.6/site-packages/ipykernel_launcher.py -f /root/.local/share/jupyter/runtime/kernel-4d1956bc-b5e4-4de8-bdab-92fc703d3ec4.json

<__main__.parser object at 0x7f3c915fb160>

Config hash: f43c4de6f2

/usr/local/lib/python3.6/site-packages/ipykernel_launcher.py -f /root/.local/share/jupyter/runtime/kernel-4d1956bc-b5e4-4de8-bdab-92fc703d3ec4.json

<__main__.parser object at 0x7f3c915fb1d0>

Config hash: deff061ad9

Device: cuda

Device: cuda

Environments loaded

Environments loaded

Training status loaded

Training status loaded

Observations preprocessor loaded
Observations preprocessor loaded
Model loaded

ACModel(
  (image_conv): Sequential(
    (0): Conv2d(3, 16, kernel_size=(2, 2), stride=(1, 1))
    (1): ReLU()
    (2): AvgPool2d(kernel_size=(2, 2), stride=2, padding=0)
    (3): Conv2d(16, 32, kernel_size=(2, 2), stride=(1, 1))
    (4): ReLU()
    (5): Conv2d(32, 16, kernel_size=(2, 2), stride=(1, 1))
    (6): ReLU()
  )
  (actor): Sequential(
    (0): Linear(in_features=16, out_features=64, bias=True)
    (1): Tanh()
    (2): Linear(in_features=64, out_features=7, bias=True)
  )
  (critic): Sequential(
    (0): Linear(in_features=16, out_features=64, bias=True)
    (1): Tanh()
    (2): Linear(in_features=64, out_features=1, bias=True)
  )
)

Model loaded

ACModel(
  (image_conv): Sequential(
    (0): Conv2d(3, 16, kernel_size=(2, 2), stride=(1, 1))
    (1): ReLU()
    (2): AvgPool2d(kernel_size=(2, 2), stride=2, padding=0)
    (3): Conv2d(16, 32, kernel_size=(2, 2), stride=(1, 1))
    (4): ReLU()
    (5): Conv2d(32, 16, kernel_size=(2, 2), stride=(1, 1))
    (6): ReLU()
  )
  (actor): Sequential(
    (0): Linear(in_features=16, out_features=64, bias=True)
    (1): Tanh()
    (2): Linear(in_features=64, out_features=7, bias=True)
  )
  (critic): Sequential(
    (0): Linear(in_features=16, out_features=64, bias=True)
    (1): Tanh()
    (2): Linear(in_features=64, out_features=1, bias=True)
  )
)

Optimizer loaded

Optimizer loaded

/usr/local/lib/python3.6/site-packages/ipykernel_launcher.py -f /root/.local/share/jupyter/runtime/kernel-4d1956bc-b5e4-4de8-bdab-92fc703d3ec4.json

<__main__.parser object at 0x7f3c915fb160>

Config hash: f43c4de6f2

/usr/local/lib/python3.6/site-packages/ipykernel_launcher.py -f /root/.local/share/jupyter/runtime/kernel-4d1956bc-b5e4-4de8-bdab-92fc703d3ec4.json

<__main__.parser object at 0x7f3c915fb1d0>

Config hash: deff061ad9

Device: cuda

Device: cuda

Environments loaded

Environments loaded

Training status loaded

Training status loaded

Observations preprocessor loaded
Observations preprocessor loaded
Model loaded

ACModel(
  (image_conv): Sequential(
    (0): Conv2d(3, 16, kernel_size=(2, 2), stride=(1, 1))
    (1): ReLU()
    (2): AvgPool2d(kernel_size=(2, 2), stride=2, padding=0)
    (3): Conv2d(16, 32, kernel_size=(2, 2), stride=(1, 1))
    (4): ReLU()
    (5): Conv2d(32, 16, kernel_size=(2, 2), stride=(1, 1))
    (6): ReLU()
  )
  (actor): Sequential(
    (0): Linear(in_features=16, out_features=64, bias=True)
    (1): Tanh()
    (2): Linear(in_features=64, out_features=7, bias=True)
  )
  (critic): Sequential(
    (0): Linear(in_features=16, out_features=64, bias=True)
    (1): Tanh()
    (2): Linear(in_features=64, out_features=1, bias=True)
  )
)

Model loaded

ACModel(
  (image_conv): Sequential(
    (0): Conv2d(3, 16, kernel_size=(2, 2), stride=(1, 1))
    (1): ReLU()
    (2): AvgPool2d(kernel_size=(2, 2), stride=2, padding=0)
    (3): Conv2d(16, 32, kernel_size=(2, 2), stride=(1, 1))
    (4): ReLU()
    (5): Conv2d(32, 16, kernel_size=(2, 2), stride=(1, 1))
    (6): ReLU()
  )
  (actor): Sequential(
    (0): Linear(in_features=16, out_features=64, bias=True)
    (1): Tanh()
    (2): Linear(in_features=64, out_features=7, bias=True)
  )
  (critic): Sequential(
    (0): Linear(in_features=16, out_features=64, bias=True)
    (1): Tanh()
    (2): Linear(in_features=64, out_features=1, bias=True)
  )
)

Optimizer loaded

Optimizer loaded

/usr/local/lib/python3.6/site-packages/ipykernel_launcher.py -f /root/.local/share/jupyter/runtime/kernel-4d1956bc-b5e4-4de8-bdab-92fc703d3ec4.json

<__main__.parser object at 0x7f3c915fb160>

Config hash: f43c4de6f2

/usr/local/lib/python3.6/site-packages/ipykernel_launcher.py -f /root/.local/share/jupyter/runtime/kernel-4d1956bc-b5e4-4de8-bdab-92fc703d3ec4.json

<__main__.parser object at 0x7f3c915fb1d0>

Config hash: deff061ad9

Device: cuda

Device: cuda

Environments loaded

Environments loaded

Training status loaded

Training status loaded

Observations preprocessor loaded
Observations preprocessor loaded
Model loaded

ACModel(
  (image_conv): Sequential(
    (0): Conv2d(3, 16, kernel_size=(2, 2), stride=(1, 1))
    (1): ReLU()
    (2): AvgPool2d(kernel_size=(2, 2), stride=2, padding=0)
    (3): Conv2d(16, 32, kernel_size=(2, 2), stride=(1, 1))
    (4): ReLU()
    (5): Conv2d(32, 16, kernel_size=(2, 2), stride=(1, 1))
    (6): ReLU()
  )
  (actor): Sequential(
    (0): Linear(in_features=16, out_features=64, bias=True)
    (1): Tanh()
    (2): Linear(in_features=64, out_features=7, bias=True)
  )
  (critic): Sequential(
    (0): Linear(in_features=16, out_features=64, bias=True)
    (1): Tanh()
    (2): Linear(in_features=64, out_features=1, bias=True)
  )
)

Model loaded

ACModel(
  (image_conv): Sequential(
    (0): Conv2d(3, 16, kernel_size=(2, 2), stride=(1, 1))
    (1): ReLU()
    (2): AvgPool2d(kernel_size=(2, 2), stride=2, padding=0)
    (3): Conv2d(16, 32, kernel_size=(2, 2), stride=(1, 1))
    (4): ReLU()
    (5): Conv2d(32, 16, kernel_size=(2, 2), stride=(1, 1))
    (6): ReLU()
  )
  (actor): Sequential(
    (0): Linear(in_features=16, out_features=64, bias=True)
    (1): Tanh()
    (2): Linear(in_features=64, out_features=7, bias=True)
  )
  (critic): Sequential(
    (0): Linear(in_features=16, out_features=64, bias=True)
    (1): Tanh()
    (2): Linear(in_features=64, out_features=1, bias=True)
  )
)

Optimizer loaded

Optimizer loaded

/usr/local/lib/python3.6/site-packages/ipykernel_launcher.py -f /root/.local/share/jupyter/runtime/kernel-4d1956bc-b5e4-4de8-bdab-92fc703d3ec4.json

<__main__.parser object at 0x7f3c915fb160>

Config hash: f43c4de6f2

/usr/local/lib/python3.6/site-packages/ipykernel_launcher.py -f /root/.local/share/jupyter/runtime/kernel-4d1956bc-b5e4-4de8-bdab-92fc703d3ec4.json

<__main__.parser object at 0x7f3c915fb1d0>

Config hash: deff061ad9

Device: cuda

Device: cuda

Environments loaded

Environments loaded

Training status loaded

Training status loaded

Observations preprocessor loaded
Observations preprocessor loaded
Model loaded

ACModel(
  (image_conv): Sequential(
    (0): Conv2d(3, 16, kernel_size=(2, 2), stride=(1, 1))
    (1): ReLU()
    (2): AvgPool2d(kernel_size=(2, 2), stride=2, padding=0)
    (3): Conv2d(16, 32, kernel_size=(2, 2), stride=(1, 1))
    (4): ReLU()
    (5): Conv2d(32, 16, kernel_size=(2, 2), stride=(1, 1))
    (6): ReLU()
  )
  (actor): Sequential(
    (0): Linear(in_features=16, out_features=64, bias=True)
    (1): Tanh()
    (2): Linear(in_features=64, out_features=7, bias=True)
  )
  (critic): Sequential(
    (0): Linear(in_features=16, out_features=64, bias=True)
    (1): Tanh()
    (2): Linear(in_features=64, out_features=1, bias=True)
  )
)

Model loaded

ACModel(
  (image_conv): Sequential(
    (0): Conv2d(3, 16, kernel_size=(2, 2), stride=(1, 1))
    (1): ReLU()
    (2): AvgPool2d(kernel_size=(2, 2), stride=2, padding=0)
    (3): Conv2d(16, 32, kernel_size=(2, 2), stride=(1, 1))
    (4): ReLU()
    (5): Conv2d(32, 16, kernel_size=(2, 2), stride=(1, 1))
    (6): ReLU()
  )
  (actor): Sequential(
    (0): Linear(in_features=16, out_features=64, bias=True)
    (1): Tanh()
    (2): Linear(in_features=64, out_features=7, bias=True)
  )
  (critic): Sequential(
    (0): Linear(in_features=16, out_features=64, bias=True)
    (1): Tanh()
    (2): Linear(in_features=64, out_features=1, bias=True)
  )
)

Optimizer loaded

Optimizer loaded

/usr/local/lib/python3.6/site-packages/ipykernel_launcher.py -f /root/.local/share/jupyter/runtime/kernel-4d1956bc-b5e4-4de8-bdab-92fc703d3ec4.json

<__main__.parser object at 0x7f3c915fb160>

Config hash: f43c4de6f2

/usr/local/lib/python3.6/site-packages/ipykernel_launcher.py -f /root/.local/share/jupyter/runtime/kernel-4d1956bc-b5e4-4de8-bdab-92fc703d3ec4.json

<__main__.parser object at 0x7f3c915fb1d0>

Config hash: deff061ad9

Device: cuda

Device: cuda

Environments loaded

Environments loaded

Training status loaded

Training status loaded

Observations preprocessor loaded
Observations preprocessor loaded
Model loaded

ACModel(
  (image_conv): Sequential(
    (0): Conv2d(3, 16, kernel_size=(2, 2), stride=(1, 1))
    (1): ReLU()
    (2): AvgPool2d(kernel_size=(2, 2), stride=2, padding=0)
    (3): Conv2d(16, 32, kernel_size=(2, 2), stride=(1, 1))
    (4): ReLU()
    (5): Conv2d(32, 16, kernel_size=(2, 2), stride=(1, 1))
    (6): ReLU()
  )
  (actor): Sequential(
    (0): Linear(in_features=16, out_features=64, bias=True)
    (1): Tanh()
    (2): Linear(in_features=64, out_features=7, bias=True)
  )
  (critic): Sequential(
    (0): Linear(in_features=16, out_features=64, bias=True)
    (1): Tanh()
    (2): Linear(in_features=64, out_features=1, bias=True)
  )
)

Model loaded

ACModel(
  (image_conv): Sequential(
    (0): Conv2d(3, 16, kernel_size=(2, 2), stride=(1, 1))
    (1): ReLU()
    (2): AvgPool2d(kernel_size=(2, 2), stride=2, padding=0)
    (3): Conv2d(16, 32, kernel_size=(2, 2), stride=(1, 1))
    (4): ReLU()
    (5): Conv2d(32, 16, kernel_size=(2, 2), stride=(1, 1))
    (6): ReLU()
  )
  (actor): Sequential(
    (0): Linear(in_features=16, out_features=64, bias=True)
    (1): Tanh()
    (2): Linear(in_features=64, out_features=7, bias=True)
  )
  (critic): Sequential(
    (0): Linear(in_features=16, out_features=64, bias=True)
    (1): Tanh()
    (2): Linear(in_features=64, out_features=1, bias=True)
  )
)

Optimizer loaded

Optimizer loaded

/usr/local/lib/python3.6/site-packages/ipykernel_launcher.py -f /root/.local/share/jupyter/runtime/kernel-4d1956bc-b5e4-4de8-bdab-92fc703d3ec4.json

<__main__.parser object at 0x7f3c915fb160>

Config hash: f43c4de6f2

/usr/local/lib/python3.6/site-packages/ipykernel_launcher.py -f /root/.local/share/jupyter/runtime/kernel-4d1956bc-b5e4-4de8-bdab-92fc703d3ec4.json

<__main__.parser object at 0x7f3c915fb1d0>

Config hash: deff061ad9

Device: cuda

Device: cuda

Environments loaded

Environments loaded

Training status loaded

Training status loaded

Observations preprocessor loaded
Observations preprocessor loaded
Model loaded

ACModel(
  (image_conv): Sequential(
    (0): Conv2d(3, 16, kernel_size=(2, 2), stride=(1, 1))
    (1): ReLU()
    (2): AvgPool2d(kernel_size=(2, 2), stride=2, padding=0)
    (3): Conv2d(16, 32, kernel_size=(2, 2), stride=(1, 1))
    (4): ReLU()
    (5): Conv2d(32, 16, kernel_size=(2, 2), stride=(1, 1))
    (6): ReLU()
  )
  (actor): Sequential(
    (0): Linear(in_features=16, out_features=64, bias=True)
    (1): Tanh()
    (2): Linear(in_features=64, out_features=7, bias=True)
  )
  (critic): Sequential(
    (0): Linear(in_features=16, out_features=64, bias=True)
    (1): Tanh()
    (2): Linear(in_features=64, out_features=1, bias=True)
  )
)

Model loaded

ACModel(
  (image_conv): Sequential(
    (0): Conv2d(3, 16, kernel_size=(2, 2), stride=(1, 1))
    (1): ReLU()
    (2): AvgPool2d(kernel_size=(2, 2), stride=2, padding=0)
    (3): Conv2d(16, 32, kernel_size=(2, 2), stride=(1, 1))
    (4): ReLU()
    (5): Conv2d(32, 16, kernel_size=(2, 2), stride=(1, 1))
    (6): ReLU()
  )
  (actor): Sequential(
    (0): Linear(in_features=16, out_features=64, bias=True)
    (1): Tanh()
    (2): Linear(in_features=64, out_features=7, bias=True)
  )
  (critic): Sequential(
    (0): Linear(in_features=16, out_features=64, bias=True)
    (1): Tanh()
    (2): Linear(in_features=64, out_features=1, bias=True)
  )
)

Optimizer loaded

Optimizer loaded

/usr/local/lib/python3.6/site-packages/ipykernel_launcher.py -f /root/.local/share/jupyter/runtime/kernel-4d1956bc-b5e4-4de8-bdab-92fc703d3ec4.json

<__main__.parser object at 0x7f3c532fc240>

Config hash: f43c4de6f2

/usr/local/lib/python3.6/site-packages/ipykernel_launcher.py -f /root/.local/share/jupyter/runtime/kernel-4d1956bc-b5e4-4de8-bdab-92fc703d3ec4.json

<__main__.parser object at 0x7f3c5341ba90>

Config hash: deff061ad9

Device: cuda

Device: cuda

Environments loaded

Environments loaded

Training status loaded

Training status loaded

Observations preprocessor loaded
Observations preprocessor loaded
Model loaded

ACModel(
  (image_conv): Sequential(
    (0): Conv2d(3, 16, kernel_size=(2, 2), stride=(1, 1))
    (1): ReLU()
    (2): AvgPool2d(kernel_size=(2, 2), stride=2, padding=0)
    (3): Conv2d(16, 32, kernel_size=(2, 2), stride=(1, 1))
    (4): ReLU()
    (5): Conv2d(32, 16, kernel_size=(2, 2), stride=(1, 1))
    (6): ReLU()
  )
  (actor): Sequential(
    (0): Linear(in_features=16, out_features=64, bias=True)
    (1): Tanh()
    (2): Linear(in_features=64, out_features=7, bias=True)
  )
  (critic): Sequential(
    (0): Linear(in_features=16, out_features=64, bias=True)
    (1): Tanh()
    (2): Linear(in_features=64, out_features=1, bias=True)
  )
)

Model loaded

ACModel(
  (image_conv): Sequential(
    (0): Conv2d(3, 16, kernel_size=(2, 2), stride=(1, 1))
    (1): ReLU()
    (2): AvgPool2d(kernel_size=(2, 2), stride=2, padding=0)
    (3): Conv2d(16, 32, kernel_size=(2, 2), stride=(1, 1))
    (4): ReLU()
    (5): Conv2d(32, 16, kernel_size=(2, 2), stride=(1, 1))
    (6): ReLU()
  )
  (actor): Sequential(
    (0): Linear(in_features=16, out_features=64, bias=True)
    (1): Tanh()
    (2): Linear(in_features=64, out_features=7, bias=True)
  )
  (critic): Sequential(
    (0): Linear(in_features=16, out_features=64, bias=True)
    (1): Tanh()
    (2): Linear(in_features=64, out_features=1, bias=True)
  )
)

Optimizer loaded

Optimizer loaded

/usr/local/lib/python3.6/site-packages/ipykernel_launcher.py -f /root/.local/share/jupyter/runtime/kernel-4d1956bc-b5e4-4de8-bdab-92fc703d3ec4.json

<__main__.parser object at 0x7f3c532fc240>

Config hash: f43c4de6f2

/usr/local/lib/python3.6/site-packages/ipykernel_launcher.py -f /root/.local/share/jupyter/runtime/kernel-4d1956bc-b5e4-4de8-bdab-92fc703d3ec4.json

<__main__.parser object at 0x7f3c5341ba90>

Config hash: deff061ad9

Device: cuda

Device: cuda

Environments loaded

Environments loaded

Training status loaded

Training status loaded

Observations preprocessor loaded
Observations preprocessor loaded
Model loaded

ACModel(
  (image_conv): Sequential(
    (0): Conv2d(3, 16, kernel_size=(2, 2), stride=(1, 1))
    (1): ReLU()
    (2): AvgPool2d(kernel_size=(2, 2), stride=2, padding=0)
    (3): Conv2d(16, 32, kernel_size=(2, 2), stride=(1, 1))
    (4): ReLU()
    (5): Conv2d(32, 16, kernel_size=(2, 2), stride=(1, 1))
    (6): ReLU()
  )
  (actor): Sequential(
    (0): Linear(in_features=16, out_features=64, bias=True)
    (1): Tanh()
    (2): Linear(in_features=64, out_features=7, bias=True)
  )
  (critic): Sequential(
    (0): Linear(in_features=16, out_features=64, bias=True)
    (1): Tanh()
    (2): Linear(in_features=64, out_features=1, bias=True)
  )
)

Model loaded

ACModel(
  (image_conv): Sequential(
    (0): Conv2d(3, 16, kernel_size=(2, 2), stride=(1, 1))
    (1): ReLU()
    (2): AvgPool2d(kernel_size=(2, 2), stride=2, padding=0)
    (3): Conv2d(16, 32, kernel_size=(2, 2), stride=(1, 1))
    (4): ReLU()
    (5): Conv2d(32, 16, kernel_size=(2, 2), stride=(1, 1))
    (6): ReLU()
  )
  (actor): Sequential(
    (0): Linear(in_features=16, out_features=64, bias=True)
    (1): Tanh()
    (2): Linear(in_features=64, out_features=7, bias=True)
  )
  (critic): Sequential(
    (0): Linear(in_features=16, out_features=64, bias=True)
    (1): Tanh()
    (2): Linear(in_features=64, out_features=1, bias=True)
  )
)

Optimizer loaded

Optimizer loaded

/usr/local/lib/python3.6/site-packages/ipykernel_launcher.py -f /root/.local/share/jupyter/runtime/kernel-4d1956bc-b5e4-4de8-bdab-92fc703d3ec4.json

<__main__.parser object at 0x7f3c532fc240>

Config hash: f43c4de6f2

/usr/local/lib/python3.6/site-packages/ipykernel_launcher.py -f /root/.local/share/jupyter/runtime/kernel-4d1956bc-b5e4-4de8-bdab-92fc703d3ec4.json

<__main__.parser object at 0x7f3c5341ba90>

Config hash: deff061ad9

Device: cuda

Device: cuda

Environments loaded

Environments loaded

Training status loaded

Training status loaded

Observations preprocessor loaded
Observations preprocessor loaded
Model loaded

ACModel(
  (image_conv): Sequential(
    (0): Conv2d(3, 16, kernel_size=(2, 2), stride=(1, 1))
    (1): ReLU()
    (2): AvgPool2d(kernel_size=(2, 2), stride=2, padding=0)
    (3): Conv2d(16, 32, kernel_size=(2, 2), stride=(1, 1))
    (4): ReLU()
    (5): Conv2d(32, 16, kernel_size=(2, 2), stride=(1, 1))
    (6): ReLU()
  )
  (actor): Sequential(
    (0): Linear(in_features=16, out_features=64, bias=True)
    (1): Tanh()
    (2): Linear(in_features=64, out_features=7, bias=True)
  )
  (critic): Sequential(
    (0): Linear(in_features=16, out_features=64, bias=True)
    (1): Tanh()
    (2): Linear(in_features=64, out_features=1, bias=True)
  )
)

Model loaded

ACModel(
  (image_conv): Sequential(
    (0): Conv2d(3, 16, kernel_size=(2, 2), stride=(1, 1))
    (1): ReLU()
    (2): AvgPool2d(kernel_size=(2, 2), stride=2, padding=0)
    (3): Conv2d(16, 32, kernel_size=(2, 2), stride=(1, 1))
    (4): ReLU()
    (5): Conv2d(32, 16, kernel_size=(2, 2), stride=(1, 1))
    (6): ReLU()
  )
  (actor): Sequential(
    (0): Linear(in_features=16, out_features=64, bias=True)
    (1): Tanh()
    (2): Linear(in_features=64, out_features=7, bias=True)
  )
  (critic): Sequential(
    (0): Linear(in_features=16, out_features=64, bias=True)
    (1): Tanh()
    (2): Linear(in_features=64, out_features=1, bias=True)
  )
)

Optimizer loaded

Optimizer loaded

/usr/local/lib/python3.6/site-packages/ipykernel_launcher.py -f /root/.local/share/jupyter/runtime/kernel-4d1956bc-b5e4-4de8-bdab-92fc703d3ec4.json

<__main__.parser object at 0x7f3c506ac588>

Config hash: f43c4de6f2

/usr/local/lib/python3.6/site-packages/ipykernel_launcher.py -f /root/.local/share/jupyter/runtime/kernel-4d1956bc-b5e4-4de8-bdab-92fc703d3ec4.json
…
/usr/local/lib/python3.6/site-packages/ipykernel_launcher.py -f /root/.local/share/jupyter/runtime/kernel-4d1956bc-b5e4-4de8-bdab-92fc703d3ec4.json

<__main__.parser object at 0x7f3c5043e780>

Config hash: deff061ad9

/usr/local/lib/python3.6/site-packages/ipykernel_launcher.py -f /root/.local/share/jupyter/runtime/kernel-4d1956bc-b5e4-4de8-bdab-92fc703d3ec4.json

<__main__.parser object at 0x7f3c5043e780>

Config hash: d83c9bb07e

Device: cuda

Device: cuda

Device: cuda

Environments loaded

Environments loaded

Training status loaded

Training status loaded

Observations preprocessor loaded
Observations preprocessor loaded
Observations preprocessor loaded
Model loaded

ACModel(
  (image_conv): Sequential(
    (0): Conv2d(3, 16, kernel_size=(2, 2), stride=(1, 1))
    (1): ReLU()
    (2): AvgPool2d(kernel_size=(2, 2), stride=2, padding=0)
    (3): Conv2d(16, 32, kernel_size=(2, 2), stride=(1, 1))
    (4): ReLU()
    (5): Conv2d(32, 16, kernel_size=(2, 2), stride=(1, 1))
    (6): ReLU()
  )
  (actor): Sequential(
    (0): Linear(in_features=16, out_features=64, bias=True)
    (1): Tanh()
    (2): Linear(in_features=64, out_features=7, bias=True)
  )
  (critic): Sequential(
    (0): Linear(in_features=16, out_features=64, bias=True)
    (1): Tanh()
    (2): Linear(in_features=64, out_features=1, bias=True)
  )
)

Model loaded

ACModel(
  (image_conv): Sequential(
    (0): Conv2d(3, 16, kernel_size=(2, 2), stride=(1, 1))
    (1): ReLU()
    (2): AvgPool2d(kernel_size=(2, 2), stride=2, padding=0)
    (3): Conv2d(16, 32, kernel_size=(2, 2), stride=(1, 1))
    (4): ReLU()
    (5): Conv2d(32, 16, kernel_size=(2, 2), stride=(1, 1))
    (6): ReLU()
  )
  (actor): Sequential(
    (0): Linear(in_features=16, out_features=64, bias=True)
    (1): Tanh()
    (2): Linear(in_features=64, out_features=7, bias=True)
  )
  (critic): Sequential(
    (0): Linear(in_features=16, out_features=64, bias=True)
    (1): Tanh()
    (2): Linear(in_features=64, out_features=1, bias=True)
  )
)

Optimizer loaded

Optimizer loaded

/usr/local/lib/python3.6/site-packages/ipykernel_launcher.py -f /root/.local/share/jupyter/runtime/kernel-4d1956bc-b5e4-4de8-bdab-92fc703d3ec4.json

<__main__.parser object at 0x7f3c504dec88>

Config hash: f43c4de6f2

/usr/local/lib/python3.6/site-packages/ipykernel_launcher.py -f /root/.local/share/jupyter/runtime/kernel-4d1956bc-b5e4-4de8-bdab-92fc703d3ec4.json
…
