Model loaded

ACModel(
  (image_conv): Sequential(
    (0): Conv2d(3, 16, kernel_size=(2, 2), stride=(1, 1))
    (1): ReLU()
    (2): AvgPool2d(kernel_size=16, stride=2, padding=0)
    (3): Conv2d(16, 32, kernel_size=(2, 2), stride=(1, 1))
    (4): ReLU()
    (5): AvgPool2d(kernel_size=16, stride=2, padding=0)
    (6): Conv2d(32, 2, kernel_size=(2, 2), stride=(1, 1))
    (7): ReLU()
    (8): AvgPool2d(kernel_size=10, stride=2, padding=0)
  )
  (actor): Sequential(
    (0): Linear(in_features=72, out_features=64, bias=True)
    (1): Tanh()
    (2): Linear(in_features=64, out_features=4, bias=True)
  )
  (critic): Sequential(
    (0): Linear(in_features=72, out_features=64, bias=True)
    (1): Tanh()
    (2): Linear(in_features=64, out_features=1, bias=True)
  )
)

Model loaded

ACModel(
  (image_conv): Sequential(
    (0): Conv2d(3, 16, kernel_size=(2, 2), stride=(1, 1))
    (1): ReLU()
    (2): AvgPool2d(kernel_size=16, stride=2, padding=0)
    (3): Conv2d(16, 32, kernel_size=(2, 2), stride=(1, 1))
    (4): ReLU()
    (5): AvgPool2d(kernel_size=16, stride=2, padding=0)
    (6): Conv2d(32, 2, kernel_size=(2, 2), stride=(1, 1))
    (7): ReLU()
    (8): AvgPool2d(kernel_size=10, stride=2, padding=0)
  )
  (actor): Sequential(
    (0): Linear(in_features=72, out_features=64, bias=True)
    (1): Tanh()
    (2): Linear(in_features=64, out_features=4, bias=True)
  )
  (critic): Sequential(
    (0): Linear(in_features=72, out_features=64, bias=True)
    (1): Tanh()
    (2): Linear(in_features=64, out_features=1, bias=True)
  )
)

Model loaded

ACModel(
  (image_conv): Sequential(
    (0): Conv2d(3, 16, kernel_size=(2, 2), stride=(1, 1))
    (1): ReLU()
    (2): AvgPool2d(kernel_size=16, stride=2, padding=0)
    (3): Conv2d(16, 32, kernel_size=(2, 2), stride=(1, 1))
    (4): ReLU()
    (5): AvgPool2d(kernel_size=16, stride=2, padding=0)
    (6): Conv2d(32, 2, kernel_size=(2, 2), stride=(1, 1))
    (7): ReLU()
    (8): AvgPool2d(kernel_size=10, stride=2, padding=0)
  )
  (actor): Sequential(
    (0): Linear(in_features=72, out_features=64, bias=True)
    (1): Tanh()
    (2): Linear(in_features=64, out_features=4, bias=True)
  )
  (critic): Sequential(
    (0): Linear(in_features=72, out_features=64, bias=True)
    (1): Tanh()
    (2): Linear(in_features=64, out_features=1, bias=True)
  )
)

Model loaded

ACModel(
  (image_conv): Sequential(
    (0): Conv2d(3, 16, kernel_size=(2, 2), stride=(1, 1))
    (1): ReLU()
    (2): AvgPool2d(kernel_size=16, stride=2, padding=0)
    (3): Conv2d(16, 32, kernel_size=(2, 2), stride=(1, 1))
    (4): ReLU()
    (5): AvgPool2d(kernel_size=16, stride=2, padding=0)
    (6): Conv2d(32, 2, kernel_size=(2, 2), stride=(1, 1))
    (7): ReLU()
    (8): AvgPool2d(kernel_size=10, stride=2, padding=0)
  )
  (actor): Sequential(
    (0): Linear(in_features=72, out_features=64, bias=True)
    (1): Tanh()
    (2): Linear(in_features=64, out_features=4, bias=True)
  )
  (critic): Sequential(
    (0): Linear(in_features=72, out_features=64, bias=True)
    (1): Tanh()
    (2): Linear(in_features=64, out_features=1, bias=True)
  )
)

