…
share/jupyter/runtime/kernel-131c83c7-6b44-4a2f-bf1b-32af8136639a.json

<__main__.parser object at 0x7fe9a4673eb8>

Config hash: f43c4de6f2

/usr/local/lib/python3.6/site-packages/ipykernel_launcher.py -f /root/.local/share/jupyter/runtime/kernel-131c83c7-6b44-4a2f-bf1b-32af8136639a.json

<__main__.parser object at 0x7fe9a4673e48>

Config hash: d83c9bb07e

Device: cuda

Device: cuda

Environments loaded

Environments loaded

Training status loaded

Training status loaded

Observations preprocessor loaded
Observations preprocessor loaded
Model loaded

ACModel(
  (image_conv): Sequential(
    (0): Conv2d(3, 16, kernel_size=(2, 2), stride=(1, 1))
    (1): ReLU()
    (2): AvgPool2d(kernel_size=(2, 2), stride=2, padding=0)
    (3): Conv2d(16, 32, kernel_size=(2, 2), stride=(1, 1))
    (4): ReLU()
    (5): Conv2d(32, 16, kernel_size=(2, 2), stride=(1, 1))
    (6): ReLU()
  )
  (actor): Sequential(
    (0): Linear(in_features=16, out_features=64, bias=True)
    (1): Tanh()
    (2): Linear(in_features=64, out_features=7, bias=True)
  )
  (critic): Sequential(
    (0): Linear(in_features=16, out_features=64, bias=True)
    (1): Tanh()
    (2): Linear(in_features=64, out_features=1, bias=True)
  )
)

Model loaded

ACModel(
  (image_conv): Sequential(
    (0): Conv2d(3, 16, kernel_size=(2, 2), stride=(1, 1))
    (1): ReLU()
    (2): AvgPool2d(kernel_size=(2, 2), stride=2, padding=0)
    (3): Conv2d(16, 32, kernel_size=(2, 2), stride=(1, 1))
    (4): ReLU()
    (5): Conv2d(32, 16, kernel_size=(2, 2), stride=(1, 1))
    (6): ReLU()
  )
  (actor): Sequential(
    (0): Linear(in_features=16, out_features=64, bias=True)
    (1): Tanh()
    (2): Linear(in_features=64, out_features=7, bias=True)
  )
  (critic): Sequential(
    (0): Linear(in_features=16, out_features=64, bias=True)
    (1): Tanh()
    (2): Linear(in_features=64, out_features=1, bias=True)
  )
)

Optimizer loaded

Optimizer loaded

